client/data/data.pth (torch, 6826 bytes, 6 tensors)

l1.weight f4 [8, 79]
0	0x3f1a5415	0.6028455
1	0x3e6c6fab	0.23089473
2	0xbe797638	-0.24361503
3	0xbf09e3c9	-0.538632
4	0x3f07bd9d	0.530237
5	0x3dacbb63	0.08434179
6	0xbe411ed9	-0.18859424
7	0x3d8d413d	0.06897209
8	0x3a955a16	0.0011394646
9	0xbeb92865	-0.3616363
10	0x3f187bf3	0.5956413
11	0xbe943308	-0.28945184
12	0xbd9fe3c5	-0.078071155
13	0xbf0841a1	-0.5322514
14	0xbe7aec8d	-0.245043
15	0x3f044d79	0.51680714
16	0x3f020a5e	0.5079707
17	0x3f202fef	0.6257314
18	0x3ecfa62c	0.40556467
19	0xbca87379	-0.020562874
20	0x3f2805b7	0.6563372
21	0x3f8b0134	1.0859742
22	0xbde1f1cb	-0.110324465
23	0xbe6d3f78	-0.23168743
24	0x3f0662c1	0.52494437
25	0x3d09dab6	0.033655845
26	0x3ea9bcb2	0.33151776
27	0xbe8efd6b	-0.27927718
28	0x3f06bab5	0.5262864
29	0xbe7f57fa	-0.24935904
30	0x3f4e596f	0.80605215
31	0xbeebacba	-0.46030217
32	0xbdd0c1e3	-0.10193231
33	0x3f070f10	0.5275736
34	0x3eadab21	0.33919623
35	0x3e90bc32	0.28268582
36	0x3dc473e4	0.09592417
37	0x3c2920a5	0.0103227245
38	0x3b8179b2	0.003951275
39	0xbd8b6874	-0.06807032
40	0xbe88b86c	-0.26703203
41	0xbe9d7776	-0.30755204
42	0xbe00ccc1	-0.12578107
43	0xbdfb7787	-0.122786574
44	0xbdd53e17	-0.10412233
45	0x3e0e0a9d	0.13871236
46	0x3e576e6d	0.21038218
47	0xbe924559	-0.28568533
48	0xbe7e41c9	-0.24829783
49	0x3e8fef67	0.28112337
50	0xbdb851f6	-0.09000008
51	0x3e5d24e4	0.21596104
52	0xbe8d10c1	-0.27551845
53	0xbe538bc0	-0.20658779
54	0x3f075cd8	0.52876043
55	0x3ed4f45e	0.41592687
56	0xbde1a666	-0.11018066
57	0xbed6aada	-0.41927224
58	0x3ecc08f6	0.39850587
59	0xbdba7680	-0.09104633
60	0xbf42d53f	-0.7610664
61	0xbc589253	-0.01321848
62	0x3f2a2e6d	0.6647709
63	0x3d610701	0.05493832
64	0xbdd5425d	-0.104130484
65	0x3db85c56	0.09001987
66	0xbe48d620	-0.19612932
67	0x3e099924	0.13437325
68	0x3e75d9ca	0.24008861
69	0xbefb9c0e	-0.49142498
70	0xbe5d4a3d	-0.21610351
71	0xbe15cfe6	-0.14630088
72	0xbe8e91cc	-0.2784561
73	0x3ed935c2	0.42423826
74	0x3bfde059	0.0077476916
75	0xbe3aa233	-0.18225937
76	0xbea9ad9e	-0.33140272
77	0x3eaae6e5	0.33379284
78	0xbc9d35c9	-0.019190686
79	0xbbeae2ec	-0.0071681645
80	0x3d8a7cff	0.06762122
81	0x3e4017e2	0.1875911
82	0xbdd096dc	-0.10185024
83	0x3e9ea40e	0.3098454
84	0x3eae25c2	0.34013182
85	0x3ebcf562	0.36905962
86	0xbef27038	-0.4735124
87	0x3e6276ed	0.22115679
88	0x3dfc9956	0.12333934
89	0x3e6fb9f0	0.23410773
90	0x3f1ceb5a	0.6129662
91	0xbe94ecc0	-0.29086876
92	0x3e328c68	0.17436373
93	0x3dc5e390	0.09662545
94	0xbf33fdbe	-0.70309055
95	0xbde41229	-0.11136276
96	0x3f2970b9	0.66187626
97	0x3ea05902	0.31317908
98	0x3f0c0444	0.5469401
99	0x3e00528a	0.12531486
100	0xbd88851b	-0.06666013
101	0x3ec86933	0.3914276
102	0x3ec11295	0.3770949
103	0x3e3c4fbc	0.18389791
104	0xbd521311	-0.051287714
105	0x3e8b2dca	0.27183372
106	0x3e9ed59a	0.3102234
107	0x3f0e916e	0.5569066
108	0x3e810b5f	0.25203988
109	0x3ee433d1	0.44570783
110	0x3e15d546	0.14632139
111	0x3e2b9871	0.1675737
112	0x3d5a7fb3	0.05334444
113	0x3cf7805d	0.030212576
114	0xbf4241bd	-0.7588156
115	0xbd865339	-0.06558842
116	0x3ed06e81	0.40709308
117	0x3f07b63d	0.5301245
118	0xbe1a648a	-0.15077415
119	0x3e85a606	0.26103228
120	0x3ed1b1f9	0.40956095
121	0x3f56f197	0.83962387
122	0x3f4fcdf1	0.81173617
123	0x3f60fd5b	0.8788659
124	0x3f168c76	0.58808076
125	0x3d9fdcec	0.078058094
126	0x3ed3327c	0.41249454
127	0x3ed0586e	0.40692466
128	0x3ee521e5	0.44752422
129	0x3e357593	0.17720632
130	0x3e303fbf	0.17211817
131	0x3e413fec	0.1887204
132	0x3d109323	0.03529657
133	0x3e36fa56	0.17868933
134	0x3d38730a	0.045031585
135	0x3eb70122	0.35743052
136	0x3ec1a07d	0.37817755
137	0x3d9b0974	0.075701624
138	0x3d24584e	0.040123276
139	0xbc9ad95c	-0.018902473
140	0xbd480535	-0.04883309
141	0xbf27230a	-0.6528784
142	0x3ea5ad33	0.32358703
143	0xbe82c600	-0.25541687
144	0xbc572a75	-0.013132681
145	0xbeccaad8	-0.39974093
146	0xbf0687be	-0.52550876
147	0xbee35b39	-0.44405535
148	0x3ecfe7db	0.4060658
149	0x3e817183	0.25281915
150	0x3d348122	0.044068463
151	0x3e9748e3	0.29547796
152	0xbcb13b61	-0.02163476
153	0xbe0524e2	-0.13002351
154	0x3daf0aae	0.08546959
155	0x3e0bcdef	0.13652776
156	0xbdddf2aa	-0.108373
157	0xbe89e1f7	-0.2693021
158	0x3e9147f0	0.28375196
159	0x3e5c6251	0.2152188
160	0x3ea6456d	0.32474843
161	0x3f5f9e0d	0.8735054
162	0xbe1eeb57	-0.15519463
163	0xbe77c180	-0.24194908
164	0xbe0ef118	-0.13959157
165	0x3e92ee9b	0.28697667
166	0xbdbccaff	-0.09218406
167	0x3f20aa5a	0.62759936
168	0xbf60cb45	-0.87810165
169	0x3f7b7efc	0.9824064
170	0x3f2fc478	0.6865916
171	0x3f2e2835	0.680301
172	0x3f04fbb4	0.5194657
173	0x3f1b75c2	0.6072656
174	0x3f11fcc5	0.5702632
175	0xbf59a4a0	-0.8501682
176	0xbddfe192	-0.10931696
177	0xbe7ddfa0	-0.24792337
178	0xbe47517f	-0.19464682
179	0x3d4fc636	0.050726138
180	0xbe35e4c8	-0.17763054
181	0xbe3456c4	-0.17611223
182	0xbe36508c	-0.17804164
183	0x3ee94011	0.4555669
184	0x3e9d5c65	0.30734554
185	0xbe1d848a	-0.15382591
186	0xbf574e36	-0.84103715
187	0xbdd64335	-0.104620375
188	0x3ed76345	0.42067924
189	0x3eea6e34	0.45787203
190	0x3f160269	0.5859743
191	0x3e85ffb6	0.26171654
192	0xbeb31e2c	-0.34983957
193	0x3ed00e71	0.40636018
194	0x3eda3713	0.42620143
195	0xbe180f11	-0.14849497
196	0xbe308cb6	-0.17241177
197	0x3e87ff42	0.26561934
198	0xbdc1ab05	-0.094564475
199	0xbe08e309	-0.13367857
200	0xbed739c4	-0.4203626
201	0xbed73b1a	-0.42037278
202	0xbed73a40	-0.4203663
203	0x3df675b3	0.12034168
204	0x3e9fa91a	0.31183702
205	0xbe1f3bf7	-0.15550219
206	0xbe4a2985	-0.19742401
207	0x3ea86659	0.32890585
208	0x3eea2cdb	0.45737347
209	0x3dd0f8ad	0.10203681
210	0x3f0428b0	0.51624584
211	0x3eb04491	0.34427312
212	0xbe8d2953	-0.2757059
213	0xbe1ec571	-0.15505005
214	0x3f09e3dd	0.53863317
215	0xbe163727	-0.14669476
216	0xbea9bb43	-0.33150682
217	0x3f06c8e6	0.52650297
218	0x3f474602	0.778412
219	0x3eed2661	0.46318343
220	0x3f3323b6	0.69976366
221	0xbe31f4c8	-0.17378533
222	0x3eb338b6	0.35004205
223	0x3e8fd1d2	0.28089768
224	0x3f03c757	0.51476043
225	0x3f5b7917	0.85731643
226	0x3f430bab	0.7618968
227	0xbea2f958	-0.3183086
228	0x3ca272a4	0.019830056
229	0xbefdaf38	-0.49547744
230	0x3f23af0e	0.6393899
231	0x3e72d743	0.23714928
232	0x3ebd7307	0.3700182
233	0x3f03ea29	0.51529175
234	0x3f00f6e5	0.5037673
235	0x3ebb23c7	0.36550733
236	0x3ef77b3d	0.4833621
237	0x3ed0dd76	0.4079396
238	0x3e397c85	0.18113907
239	0xbedbd33d	-0.429346
240	0xbf598e9b	-0.84983224
241	0xbd4b84e6	-0.04968729
242	0x3f25abda	0.6471535
243	0x3ea092c0	0.3136196
244	0x3e214b69	0.15751423
245	0x3cd73e4e	0.026274826
246	0xbebb0af2	-0.36531788
247	0xbe81ea12	-0.25373894
248	0xbd94a740	-0.07258463
249	0x3c819988	0.01582028
250	0xbe394ad0	-0.18094945
251	0xbe3c206c	-0.18371743
252	0x3f564358	0.8369651
253	0x3f1fc658	0.62412024
254	0xbf5e0263	-0.8672239
255	0xbd3d7289	-0.046251807

l1.bias f4 [8]
0	0x3f06c71c	0.52647567
1	0x3f7d0049	0.9882856
2	0x3ed7398c	0.42036092
3	0x3ea55416	0.32290715
4	0x3eded939	0.43525103
5	0x3f75cd8f	0.9601678
6	0x3f701e4c	0.9379623
7	0x3e60324b	0.21894185

l2.weight f4 [8, 8]
0	0x3fba7ba3	1.4568981
1	0x3f80595b	1.0027269
2	0xbf2b4193	-0.66896933
3	0x3f0171f5	0.5056451
4	0x3fa373b4	1.2769685
5	0x3fd2932b	1.6451162
6	0x3f563334	0.8367188
7	0xbfb2878d	-1.3947617
8	0xbf75ff1b	-0.96092385
9	0x3f8782c5	1.0586783
10	0x3f5f2f81	0.8718186
11	0xbf33e3eb	-0.7026965
12	0xbf3bdabd	-0.73380643
13	0xbf011d22	-0.5043508
14	0x3fa478cf	1.2849368
15	0x3ef92904	0.48664105
16	0xbd8af192	-0.06784357
17	0x3de64707	0.11244016
18	0xbe15716d	-0.1459405
19	0xbe6974c1	-0.22798444
20	0x3e9dd093	0.30823192
21	0xbe8c5a1f	-0.27412507
22	0xbe1db131	-0.15399624
23	0xbe15c940	-0.14627552
24	0xbf12d1cc	-0.57351375
25	0x3f329796	0.6976255
26	0xbe8213eb	-0.2540582
27	0x3f5e136b	0.8674838
28	0xbfa7a1f6	-1.3096302
29	0xbf71bca4	-0.9442847
30	0x3f6df800	0.9295654
31	0xbf8e5785	-1.1120459
32	0x3f1fb8cf	0.6239137
33	0xbf94954c	-1.1608062
34	0x3f1621d6	0.5864538
35	0x3f971375	1.1802813
36	0x3f013f27	0.5048699
37	0xbeb719ad	-0.35761777
38	0xbf02f753	-0.51158637
39	0x3f18c65f	0.5967769
40	0xbf3a1b36	-0.7269777
41	0x3eec7c35	0.46188512
42	0xbeb1e408	-0.34744287
43	0xbecf5082	-0.4049111
44	0xbf41b92a	-0.7567316
45	0xbe8134bd	-0.2523555
46	0x3f716e98	0.9430938
47	0xbf44b114	-0.768327
48	0xbf41afe4	-0.7565901
49	0x3f4461a1	0.7671147
50	0x3f7ca607	0.9869084
51	0xbebf3dbe	-0.37351793
52	0xbf8b98f3	-1.0906051
53	0xbed56d21	-0.4168482
54	0x3f8660f6	1.049834
55	0x3f5f4c20	0.8722553
56	0x3f42f146	0.76149404
57	0xbebbd764	-0.36687768
58	0x3f866008	1.0498056
59	0x3fcb0589	1.5861064
60	0x3f8a7ed0	1.081995
61	0xbf4f6980	-0.81020355
62	0x3f31a2e7	0.69389194
63	0x3fb5bee1	1.4198877

l2.bias f4 [8]
0	0x3f48a25a	0.7837273
1	0x3ee871d8	0.45399356
2	0xbe4eee40	-0.20208073
3	0x3e754e3e	0.23955628
4	0x3e8829cc	0.26594388
5	0x3f0b2fbc	0.5436971
6	0x3e94d04a	0.29065162
7	0x3e19cc2b	0.1501929

l3.weight f4 [8, 8]
0	0xbfe2e783	-1.7726902
1	0x3f4fa92a	0.811175
2	0x3e0bc8ac	0.13650769
3	0xbf2c2eb1	-0.67258745
4	0xbf6f7f7f	-0.9355392
5	0xbdf875cd	-0.12131844
6	0x3f1d7db3	0.61519927
7	0x3ca63a40	0.020291448
8	0xbf119bbe	-0.5687827
9	0x3eb04801	0.34429935
10	0xbe82373d	-0.25432768
11	0x3f97be97	1.1855038
12	0xbf15e504	-0.58552575
13	0x3f27989c	0.6546724
14	0x3d941c36	0.07231943
15	0xbea1ae7f	-0.31578442
16	0xbfbc8413	-1.4727806
17	0xbe5ecb3d	-0.21757217
18	0xbe3434e5	-0.17598303
19	0xbff5e2dc	-1.9209857
20	0x3f493d3c	0.7860906
21	0xbeb4b4f0	-0.35294294
22	0x3ea18d87	0.3155329
23	0x3ed43120	0.4144373
24	0x3da5a2c6	0.08087687
25	0x3e89ec6c	0.26938188
26	0xbea45338	-0.3209474
27	0xbfc24d45	-1.5179831
28	0xbf8cc89f	-1.0998725
29	0xbf8115f2	-1.0084822
30	0x3e66d0a2	0.22540525
31	0x3e8736c2	0.26408964
32	0x3f84387d	1.0329739
33	0xbfa5b415	-1.2945582
34	0xbe211508	-0.15730679
35	0xbfb15523	-1.3854107
36	0xbfd3b527	-1.6539658
37	0xbf40f346	-0.75371206
38	0xbf2e2bcf	-0.68035597
39	0xbf4f7c79	-0.81049305
40	0x3eb8aac8	0.36067796
41	0xbfbbc3e4	-1.4669156
42	0x3ea41f0f	0.32054946
43	0xbf8a0fdb	-1.0786089
44	0xbeecd60b	-0.46257052
45	0xbea63eba	-0.32469732
46	0xbf558dd5	-0.83419544
47	0x3eff9c33	0.49923858
48	0x3eeadbe9	0.45870903
49	0x3ed9d71c	0.42546928
50	0xbe42c816	-0.19021639
51	0x3e971c6a	0.29513866
52	0xbeb3451c	-0.35013664
53	0x3f822515	1.0167567
54	0xbe07994b	-0.1324207
55	0xbfd03188	-1.6265116
56	0xbf587fbf	-0.84569925
57	0xbfa2f347	-1.2730492
58	0x3cdae828	0.026722029
59	0xbf69a7d2	-0.912717
60	0x3f7641f2	0.96194375
61	0xbea88552	-0.32914215
62	0xbf87bf8f	-1.0605334
63	0x3f3c735f	0.7361354

l3.bias f4 [8]
0	0x3e27da15	0.16391785
1	0xbefee849	-0.49786595
2	0x3da1a6e9	0.07893164
3	0x3c35072b	0.011049072
4	0x3edc235d	0.4299573
5	0xbd213023	-0.039352547
6	0xbb4dfd6c	-0.0031431569
7	0x3e4a1227	0.19733487
