client/data/data.pth (torch, 13610 bytes, 6 tensors)

l1.weight f4 [8, 191]
00000000: 3da8 6bbe 17d7 883e ba0a a33e e3f3 b53d
00000010: ab1e bebe ce2d 8f3e 5596 213e 4a1c fd3e
00000020: a971 723d d2b3 973f 33cd ccbf cadd 23bf
00000030: 0c94 f9bd 45f5 313f 7278 ad3e 08f0 f1bd
00000040: a7c7 c8be 027c 783e 6ba0 e1bd aedc 4d3e
00000050: c2c1 a83e ea02 5c3e 0514 dc3d b035 d2bd
00000060: 43df 203e 099c 013f 5d4c ca3e 2767 c2be
00000070: 1e87 8d3f 23f3 b9bd ab50 613f 3f66 043f
00000080: 0cb5 bd3e 28d0 223f 8c64 adbd 5e8e 7bbf
00000090: c088 90bf 872a 843f d593 e53e 7427 f1be
000000a0: 826e c23e 2de5 84bf c2cb 383f f9ab 763e
000000b0: c0b3 ba3d 91fb 0b3f d50f 183e 39b5 28bf
000000c0: 2b3d 41bf 48a0 94be 6832 83bd 37b2 453f
000000d0: 11f3 533e 293b 0b3e 1a77 873f 8a69 ff3e
000000e0: dad0 0b3f 60d7 0fbf 93d2 84bf 1b5f 8e3e
000000f0: 138e d33e 14fc 3b3f 9df0 543e 6e9d 113f
00000100: b02e 53be 1ecf 8ebe d2c9 263e 1bc4 953e
00000110: d3a3 0abd 0c25 20bf b7d3 c5bf a6de 11be
00000120: 8b3c b5bf b988 39bf 41d4 243e 1a3e 053f
00000130: 80fd 86bf 3f71 563c 9510 743e 7356 53be
00000140: de96 3d3d 95a1 083f 1958 553f 6c8b 633f
00000150: d731 10bf da0f 553e 219f 073f 875b c7be
00000160: f1ed 7e3f ca06 8cbf e3a5 2a3c 4c40 d13e
00000170: b802 293f 0d95 e43e 9d07 bb3e dca5 8e3f
00000180: 124b 403f 3566 463d 3736 473f b3bc 4a3f
00000190: 9aa6 373e ed79 95bf 391f 3dbf 0153 8dbe
000001a0: 041f b1bd bbe5 9a3e c3ad 8a3e 44f4 09bf
000001b0: 4664 0ebe 72cd 2cbe a263 15bf 6864 20bf
000001c0: a74e a03e c33a 793e 3ecf 4cbe 7a20 a93f
000001d0: 5278 ca3e bb30 0fbf ae5e 9fbe 1c16 ffbd
000001e0: 169b 18bf 543e 5cbe c645 463f c770 893f
000001f0: d8d8 b53e cbf9 2dbf 95b7 d2be 925f 313e
00000200: 749e 19bf 9de4 03bd a821 f5be 8a07 26bf
00000210: 3f54 323f 6dfd 173f abc6 06bf b39f be3e
00000220: 2198 a9bd 0179 acbe 3428 babe 9a05 c03e
00000230: 914f 843f 2a38 813f e366 843f 511d db3e
00000240: 0a25 973e 0b19 52bf 5370 83bf f893 70bd
00000250: 55d2 193e 00c0 eabd eb0b 333e 8905 f5be
00000260: 55cb 3ebe 8284 cd3f 2be9 b53e 3610 38be
00000270: ae17 49bf 5683 ebbd 493d f4be 705e 7b3e
00000280: 9754 113f 3451 99bf 64c0 04bf 9b2f 2bbf
00000290: 46db 6f3e 7516 303f c3a1 1f3e b7ab fdbe
000002a0: 2219 24bf 3839 e73e 0bd2 bc3e 9a2b 853e
000002b0: b307 a23e 5a55 a23e 4fc8 8c3f 7b50 66bf
000002c0: b7fb 86be 3643 643f cfc4 94bd 1466 6e3f
000002d0: 0152 453e cde8 dbbe 0417 3fbf 8458 1ebe
000002e0: ff4c c13e 0d86 a23e 96f5 083f a2bd 2a3f
000002f0: 6e1e 123f f1d1 083f 796c 693e f78f 5f3f
00000300: 698b b93d 434c 193e 0c52 d83e 37cc 85be
00000310: 6af3 e43e a0b7 4abd 192a 9d3e 1e4e 4c3e
00000320: 137c 86be bbc5 febd 02af 1a3f b89f b13d
00000330: 4b69 333f 42fd 063f 0220 613f 21de 84bf
00000340: 7e66 71be 2841 20be 7f4c 933e 5f60 f03e
00000350: 3329 073f 54b4 cd3e 780d f63e fdf4 873f
00000360: 62dc e6be 971d f43d c15f cf3e 8846 043f
00000370: 6f33 f13e 2003 60be 3fa7 223e 4d8b 033f
00000380: 9982 10bd cb26 093f 3a19 943e 04be 623f
00000390: dd8e 07be 8212 3e3e cc88 0e3f f910 11be
000003a0: 119e 843f 1922 9c3e 8369 253f 2af9 1dbf
000003b0: b8b5 f23e 70ad aa3e 339a 71be 32db 9cbe
000003c0: da16 7c3e a99b a0bd 6d97 cc3e c68c b23e
000003d0: 9d83 c8be 436a 303f 1674 063f 2c13 1bbd
000003e0: 1c6c 733e 3fb5 4cbf 4b82 1e3f 006e e43d
000003f0: eda3 273f 94b2 233f 996f 3ebe 753f a73e
-0.23013397 0.267266 0.3184412 0.08884408 -0.37132773 0.27964634 0.15780003 0.49435645
0.059190426 1.1851752 -1.6000122 -0.640103 -0.12186441 0.69514877 0.33880955 -0.118133605
-0.39214823 0.24266055 -0.110169254 0.20103714 0.32960325 0.21485487 0.10746006 -0.10264146
0.15710168 0.50628716 0.39511386 -0.37969324 1.105686 -0.09079578 0.88013715 0.51718515
0.3705219 0.6359887 -0.084664434 -0.9826411 -1.1291733 1.0325478 0.4483935 -0.47100413
0.37974936 -1.0382439 0.7218591 0.2408904 0.09116316 0.54680735 0.1484979 -0.65901524
-0.7548396 -0.29028535 -0.064060986 0.7722506 0.20698191 0.13596787 1.0583222 0.49885207
0.5461556 -0.5618801 -1.0376762 0.27806935 0.41319332 0.73431516 0.20794912 0.56880844
-0.20623279 -0.27892393 0.16287926 0.2925118 -0.03384764 -0.6255653 -1.5455235 -0.1424509
-1.4159101 -0.7247425 0.16096593 0.52047884 -1.0546112 0.013088523 0.2383445 -0.20638447
0.046286456 0.53371555 0.8333755 0.88884616 -0.5632605 0.20806828 0.52977186 -0.38937017
0.9958182 -1.0939572 0.010415527 0.40869367 0.66019773 0.44644967 0.36529246 1.1144366
0.7511455 0.048437316 0.778171 0.7919418 0.17934647 -1.1677834 -0.73875767 -0.2760239
-0.08648494 0.30253395 0.27085695 -0.53888345 -0.13905439 -0.16875246 -0.5835515 -0.6265321
0.31310007 0.24338822 -0.20000932 1.3213036 0.39544922 -0.5593373 -0.31126922 -0.12455389
-0.5961164 -0.21508151 0.77450216 1.0737542 0.35517 -0.6795928 -0.41155687 0.17321613
-0.60007405 -0.032200444 -0.4787724 -0.64855254 0.696598 0.5937107 -0.52646893 0.37231216
-0.082809694 -0.3368607 -0.36358798 0.37504274 1.0336782 1.0095265 1.0343899 0.42795804
0.29520446 -0.8206946 -1.0268654 -0.058734864 0.15021642 -0.11462402 0.17485015 -0.47855785
-0.18632253 1.6056063 0.35529456 -0.17974934 -0.7855176 -0.1149966 -0.47703007 0.24547744
0.567697 -1.1977906 -0.51856065 -0.66869515 0.2342349 0.68784267 0.15589051 -0.4954507
-0.6410085 0.45160842 0.36879 0.26009828 0.316465 0.31705743 1.0998629 -0.89966553
-0.26363918 0.89165056 -0.07264101 0.9312451 0.19269563 -0.4295105 -0.74644494 -0.15463454
0.37754056 0.31742898 0.53499734 0.66695607 0.5707768 0.53445345 0.22795285 0.8732905
0.090597935 0.14970498 0.42250097 -0.26132366 0.4471696 -0.049491525 0.3069618 0.19951674
-0.26266536 -0.12440058 0.6042329 0.08673042 0.7008254 0.5273019 0.87939465 -1.0380288
-0.23574254 -0.15649855 0.287693 0.46948525 0.5279724 0.40176642 0.4805715 1.062164
-0.45090014 0.11919706 0.40502742 0.5167012 0.47109553 -0.21876192 0.15884112 0.5138443
-0.035280798 0.5357482 0.28925496 0.8857119 -0.13238092 0.18561748 0.55677485 -0.14166631
1.0360738 0.30494764 0.64614123 -0.6170832 0.47404265 0.33335447 -0.23593979 -0.30635983
0.24618092 -0.0784219 0.3995928 0.34873027 -0.39162913 0.6891214 0.52520883 -0.03786008
0.23771709 -0.7996406 0.6191756 0.11153793 0.65484506 0.63944364 -0.18597259 0.326656

l1.bias f4 [8]
00000000: 9ac4 593f d792 8c3f c2a8 2b3f d8af 9d3f
00000010: 93db 083f 9193 813f 918e 513f 1596 1f3f
0.85065615 1.0982312 0.6705438 1.2319288 0.53460044 1.0123159 0.81858164 0.6233838

l2.weight f4 [8, 8]
00000000: 42cf 2a40 7355 c33f f38d 88bf 2e54 8c3f
00000010: 3967 dfbf 844a 163f 40ba 3fbf 216a 9e3f
00000020: cdb9 b33d a61c a8be 2916 9c3c 7f2d d3bb
00000030: 32d0 ecbd 7003 aabe 0d92 8bbe d9a9 9dbe
00000040: cdc2 a83f bb25 71bd 54ef 1740 7124 febe
00000050: 3f35 f13f 27da f13f 2af3 febf 2550 10bf
00000060: df5c 883f 4c63 0440 b995 cb3e 1aee b83f
00000070: de6b c8bf f839 c8bf 0eea 86bf 039d a33f
00000080: 83f1 8b3e 7410 ac3f 1d9e ca3f c612 01c0
00000090: 2b4a 59bf 5d49 833e 47aa 2240 86ae 043f
000000a0: 1997 90bf b473 0540 d5e2 943d 8eea 2440
000000b0: 40d7 af3f 07e6 4d3f 2aba 2e40 afd4 a2bf
000000c0: f9ae babf e3b7 19bd 26f2 be3f 9aa2 963f
000000d0: d82b 1340 4f6f b4bf 6243 ba3b e8ad 1f40
000000e0: dfd2 db3e 11b4 e3bf 5045 67bf eb7e 7f3f
000000f0: 5daf 573c 4d97 2640 2ebb a83f e934 d43f
2.6689 1.5260452 -1.066832 1.096319 -1.7453376 0.5870745 -0.7489357 1.2376138
0.08775673 -0.32834357 0.019053536 -0.0064446325 -0.115631476 -0.33205748 -0.27259865 -0.30793646
1.3184448 -0.058873873 2.3739824 -0.49637178 1.8844374 1.88947 -1.9917958 -0.5637229
1.0653342 2.0685606 0.39762667 1.4447663 -1.5657918 -1.5642691 -1.0540178 1.2782291
0.27332696 1.3442521 1.5829502 -2.0167708 -0.84878796 0.2564191 2.541643 0.518288
-1.1296111 2.085187 0.07269827 2.576816 1.3737564 0.8042912 2.7301126 -1.2721156
-1.4584647 -0.037528884 1.4917648 1.1768372 2.299551 -1.4096469 0.005684302 2.4949894
0.4293432 -1.7789327 -0.9034014 0.99803036 0.013164368 2.6029847 1.3182123 1.6578647

l2.bias f4 [8]
00000000: 7c01 3e3f 8966 b4be 7c17 553f 714b 003f
00000010: e726 853e 54f1 833f 585c 013f 049b fd3e
0.74221015 -0.35234478 0.8323896 0.50115114 0.26006243 1.0308022 0.5053153 0.4953233

l3.weight f4 [35, 8]
00000000: 7ff8 a4bf 5afb 1c3e 06b8 7dbe dc5e 53bf
00000010: 8fb9 33be 5513 373e e8f6 703d ccd0 d23e
00000020: 0491 0bbf cc1e 8bbe 20e5 11be 6dbd 37be
00000030: 4d18 d4bf a8b7 2b3d 2157 133f 63f0 13bf
00000040: 1de9 4bc0 2d55 6d3e 6f3d 73bf 69e6 9fbf
00000050: c7f2 4cbf 69ee 1d3f 75a7 4a3f 5b59 95be
00000060: 1864 e1bd 9628 75be 8a0a f53e 5733 dbbb
00000070: 155d 7e3d eea8 bebf ec49 a9be add7 2fbe
00000080: 14df 013f 6421 863e ff3c 9fbf ed7e cdbe
00000090: 8538 ac3e df23 34bf 2e69 b8bf aa85 0b3f
000000a0: 5ff4 2dbf fbb0 e2bd b0c8 c9be 38ef ae3d
000000b0: 02a1 5b3f fbb7 1c3e 85d0 93be a9af f1bf
000000c0: 4323 65bf 9c05 1c3e fa88 01bd 1ee1 9f3e
000000d0: 7be6 023e b33b 16c0 8410 4a3f 9a18 55bf
000000e0: 3ab2 323f 3a1c 51be 99c7 c2bf 5369 533f
000000f0: 2869 54bf 1025 82bb 3206 d3be b009 99bf
00000100: 7974 293f 6f90 eabd 9a99 86be 8d3c d33d
00000110: cf37 e8bf 2837 debf ee93 07bf 5e8f 4c3f
00000120: 3c5f 51c0 c12a 29bd 80b6 213f f63b bdbf
00000130: 16cc fb3e d44b 7e3e 2be6 503e a47e c1bf
00000140: 268b f1bf 47fc 27be 1189 bd3e bc95 6d3e
00000150: 19fc 36bf eef8 1f3f 7421 283e f64d 2bc0
00000160: deb0 3abf edab 9cbe 3380 863f 1587 0cbe
00000170: 4ba0 5bbc e73a 43bf a99f 393c 62f1 09c0
00000180: f3b7 3bc0 56d9 d03d 024b 463f 61de 20c0
00000190: 08de bcbe 801b 43bf 34be 033f ef13 693d
000001a0: d9c3 22bf d136 493e 9c21 c53e c053 22c0
000001b0: 14eb 37c0 db69 a93e 69a2 0fbe 158f c73e
000001c0: 9a0d 353e 4830 853e 620f 743c 1084 66bd
000001d0: 55c6 ebbe c717 823e 771a 48bf 122b 74be
000001e0: e117 5f3f 7c9c aabe 5541 57bf 4b46 153f
000001f0: fdfe ccbe a826 43c0 3486 31be efab babd
00000200: 8abe 0c3f 4a27 7a3e 8bea aa3e 8ee5 003f
00000210: d6da bb3e a5bc c6bf 6ec7 15bf 968e 19c0
00000220: 49f3 23c0 a89f 64be 106c 5abe 5692 06bf
00000230: 28f2 2c3f 4382 53bf 9286 9d3e 8416 7c3e
00000240: 91f6 47bf aa3e 12be b94c 323f c2d9 10c0
00000250: 8df2 e13e 8e2e 64be b67a 19bf 04b5 1fbe
00000260: 7e45 053e b81c 003e c7c1 0cbf fbae 5bbf
00000270: cdf5 f8bf 2bff 88be 64e5 9a3d f921 503f
00000280: e96e 903e 59fc 113e cb25 1f3f aa9b 88bf
00000290: d0b7 aebe 5a42 cbbf eac0 b6bf c36b f83e
000002a0: 4012 19c0 41b5 a63e 858b abbf 8e22 00be
000002b0: bd75 123e cd4c 6b3f 9ccc b83e 35b8 b5bf
000002c0: 745d cd3e b7d4 14be 788a 56bf 17dc aa3e
000002d0: 7790 1f3f 5b0b 86bf 1591 57be 2d93 56bf
000002e0: 34ac 91be c521 9ebe 1be4 ffbf 1e6b d93e
000002f0: bc21 85be be95 18bc 1007 133f 77da 49bf
00000300: 10b5 773e 19e8 203e 6d72 ebbe 23eb 0f3f
00000310: c1be b0bf d463 89bf 7167 dd3e e2e5 49bd
00000320: 2897 503f 2106 3c3e feb8 09bf 588c 0c3f
00000330: d487 e2bf 0250 5bbe 0133 f4bf 8c6b bfbd
00000340: 8e49 ca3e 6ac8 a33e 52dd 2ec0 0bb8 8c3e
00000350: b789 43bf 3342 8e3e 626c 26bf afd4 f13e
00000360: cb39 01bf 31b8 50be f6ed 12c0 51b5 0bc0
00000370: 45f0 0cbf c9a5 2a3f 0b92 933d 0994 293f
00000380: c85c e63e 6e96 993d 4773 07c0 2695 463e
00000390: 2edd df3e 3322 183f f0a5 a4bf b386 c1bf
000003a0: 688d 52c0 0bce c4bd 5114 5b3e 712d fbbf
000003b0: 1daf 89bf fd75 6d3f 61ac 11bf e1ac b83e
000003c0: e194 753e 4135 9ebe 121a 32bd e825 c3be
000003d0: 49ea 2fc0 148e 613f 0432 10c0 42c6 bc3e
000003e0: db55 fe3d beb3 b4bd 41c1 0e3f 92a0 043f
000003f0: 844e 27c0 7f52 3a3f bdbd 4abf 95f7 cfbf
-1.2888335 0.15330258 -0.2477723 -0.8256662 -0.17551254 0.17878468 0.05882922 0.41174924
-0.5451815 -0.27171934 -0.1424756 -0.17943354 -1.6569916 0.041923195 0.57554823 -0.57788676
-3.186103 0.23177023 -0.95015615 -1.2492191 -0.8005795 0.6169191 0.7916177 -0.29169735
-0.110054195 -0.23941264 0.47859603 -0.00668947 0.06210049 -1.4895303 -0.3306421 -0.17172118
0.50731015 0.2619735 -1.244049 -0.401359 0.3363687 -0.70367235 -1.4407098 0.5450083
-0.67951006 -0.110689126 -0.39410925 0.08541721 0.85792553 0.15304558 -0.28870025 -1.8881732
-0.8950693 0.15236515 -0.03162477 0.31226438 0.12783234 -2.3473938 0.7893145 -0.83240664
0.698032 -0.20420924 -1.5217162 0.82582587 -0.82972956 -0.0039717034 -0.41215664 -1.1956081
0.6619335 -0.1145333 -0.26289064 0.103142835 -1.8142031 -1.7360582 -0.529601 0.7990626
-3.2714376 -0.04130054 0.631691 -1.4783924 0.49179143 0.24833614 0.20400302 -1.5116773
-1.887059 -0.1640483 0.37018636 0.2320165 -0.7147842 0.6248921 0.16419011 -2.6766334
-0.7292613 -0.3059992 1.0507873 -0.13723405 -0.013404916 -0.7626175 0.01132957 -2.1553578
-2.9331024 0.101977035 0.774582 -2.513573 -0.36888146 -0.76213837 0.514621 0.056903776
-0.6358009 0.19649817 0.38502204 -2.5363617 -2.873723 0.33088574 -0.14026798 0.3897635
0.1768097 0.26013398 0.014896246 -0.05627829 -0.46049753 0.25408766 -0.7816538 -0.23844555
0.8714581 -0.33322513 -0.84084064 0.58310384 -0.4003829 -3.0492344 -0.1733635 -0.09114825
0.5497824 0.2442905 0.33382067 0.5035027 0.36690396 -1.552632 -0.5850743 -2.3993278
-2.561724 -0.22326529 -0.21330285 -0.5256704 0.67557 -0.8262064 0.30766732 0.24617964
-0.78110605 -0.14281717 0.6964832 -2.263291 0.44130364 -0.22283384 -0.5995287 -0.15596396
0.1301479 0.12510955 -0.5498318 -0.85813874 -1.9450012 -0.26757178 0.07563284 0.8130184
0.28209618 0.14256419 0.6216704 -1.0672505 -0.34124613 -1.5879624 -1.4277623 0.48519716
-2.391739 0.3256016 -1.3401953 -0.12513182 0.14302726 0.91914064 0.36093605 -1.419684
0.40110362 -0.1453427 -0.83805037 0.3337104 0.6232981 -1.0472215 -0.21051438 -0.8381832
-0.28451693 -0.3088514 -1.9991487 0.42464536 -0.260023 -0.009313045 0.5743265 -0.78848976
0.24190164 0.15713538 -0.45985737 0.56218165 -1.3808213 -1.073359 0.43242982 -0.0492915
0.81480646 0.18361713 -0.537979 0.5490165 -1.7697701 -0.2141724 -1.9078065 -0.09346685
0.39509243 0.3198884 -2.7322583 0.27484164 -0.7638201 0.2778488 -0.6500913 0.47232577
-0.5047881 -0.20382763 -2.295774 -2.1829417 -0.5505412 0.6665922 0.0720559 0.6624151
0.4499266 0.07499395 -2.116411 0.19392833 0.43723434 0.59427184 -1.286314 -1.5119232
-3.2898808 -0.09609612 0.21394469 -1.9623243 -1.0756565 0.9275816 -0.56903654 0.36069396
0.23982574 -0.30900005 -0.043481894 -0.38114858 -2.7486746 0.8810742 -2.2530527 0.3687001
0.124187194 -0.088233456 0.5576363 0.5180751 -2.6141672 0.7278213 -0.7919577 -1.6247431

l3.bias f4 [35]
00000000: 83a4 bd3d cf63 33be da90 68be b58c f8be
00000010: c3ee e9bd 8d96 b73d 2541 26bd 8d0b 7bbe
00000020: 3098 c0be bbf1 0bbe fd81 5c3e f9b0 4e3e
00000030: a3ed 153e 9916 20bd d502 62be 666d f53d
00000040: 11ed 13be 33a1 26be afb2 493e 13a8 de3d
00000050: 0971 f83e 7f15 8f3e de5c 8b3e 8d2f 87be
00000060: a14b ebbd c70f f23c 7a40 d33d 7d13 93be
00000070: b724 bf3e c79c 01bd cb4e 8f3e 8822 873e
00000080: 1bfa 5f3e cd75 793d f933 3b3e
0.09259894 -0.17518543 -0.22711506 -0.4854485 -0.11422493 0.08964262 -0.04058947 -0.24516125
-0.3761611 -0.13666432 0.21533962 0.20184697 0.14641432 -0.03908405 -0.22071393 0.11983757
-0.14445902 -0.1627243 0.19697069 0.10871901 0.4852374 0.27946088 0.2721929 -0.26403466
-0.114890344 0.029548539 0.10315032 -0.28725806 0.373327 -0.031643655 0.27989802 0.26393533
0.21872751 0.06090336 0.18281545
