chatbot/data.pth (torch, 17194 bytes, 6 tensors)

l1.weight f4 [8, 238]
00000000: 9286 0bbf c8cd dd3e 7aba c03e 1a2a f03e
00000010: b543 4d3f bc3b 323e b7b6 58bf 0d30 5e3f
00000020: 35b5 413f 8931 3ebe 2097 973f 5dd1 c03d
00000030: 22ae cc3f e12e 02c0 9e0d 903f f4ce 0dbe
00000040: f68e ac3d 6089 943f 2fcd 96bf 8e81 3cbf
00000050: 2b16 ae3f e858 8a3f 0250 04bf fe42 a53f
00000060: d4f1 a4be 3ac3 f1bd 64f0 edbd 4b2d dcbe
00000070: e035 0c3f 3971 363f 1c43 b83f 9bcc 31bd
00000080: 5b83 853f 9e45 7bbd 36cf 6b3f adb0 8ebf
00000090: 341a fa3f 7874 413f 2f13 10bf e0ec d73e
000000a0: 6b27 dbbf 138a 02bf 57da efbe ff2b 3c3f
000000b0: fbbb f7be b2e9 d4be 2487 31bf 3fda 963f
000000c0: 97e9 403f 680f a3bf c46d 37bf d2e0 a93e
000000d0: 4672 4ebe f2c4 c03d 1fb7 a33e e6c2 afbe
000000e0: 4efc b43e d94b 513f 7b99 883f 7cc0 993e
000000f0: 6236 6f3f 276f cb3f c542 823f 5522 b8be
00000100: adfa 5f3f c515 0c40 6343 973e 9fa1 a53e
00000110: e7ad 4fbf 5750 24bf a7e3 a3bf 72ee 123f
00000120: ff47 253f 1097 b43d 8f77 fd3e f2e3 1a3e
00000130: c1f3 383f 4c74 92be a54c 17bd ec63 1f3e
00000140: b1c6 103f e030 053e 6cff b3be 3f5c 2f3f
00000150: 2ac2 9f3e 4c02 f03e c1b1 353f f9fb 6bbe
00000160: 1819 113f 534d 2b3f 4ae7 09c0 2cd0 de3e
00000170: ee34 f03e a0a5 afbe 8a57 213f 93f7 12bf
00000180: c524 a03e f2c0 4abe fb99 0c40 7931 703d
00000190: d978 a2be 2bd7 723f d2e1 80bf b51b 893f
000001a0: d071 ff3c 592d fdbe 4166 1040 d5e0 a03d
000001b0: d9a6 853f d9c7 0040 0fd7 5e3f f7b4 2dbf
000001c0: aabe b03d 6ee2 c73f abf8 bc3d 80fa cf3f
000001d0: 2842 ca3f f6c3 3b3f 4ff4 e33d 13ea 0fbf
000001e0: 0a37 883e 8a91 2f3f 1442 bfbe c4e1 9cbe
000001f0: 334e a9bd 1ed2 1e3e f8bf b93d 64a3 8dbd
00000200: a6de a93f 7006 c33d 8dcf 863f 3364 88bf
00000210: c946 58bf b550 ed3c 6737 96bf a18c 14c0
00000220: 9af0 423d c133 27bf 9a86 6bbf 6f76 e43e
00000230: a470 a53e deda 2e3f cbb3 913f 0617 b5be
00000240: fd64 0abf 8d32 d43e decc 4b3f 5308 e0bd
00000250: 0a87 233e 1068 c83e 8b9e 7b3d 4278 ec3d
00000260: a432 b2bd a213 8e3f 8d01 f9be 3021 0d3e
00000270: 352d 8dbf a3c9 dc3e 5558 c5be 2212 b93e
00000280: 812b 253f 24c9 063f 676b 4bbd c5de 0cbe
00000290: b607 8dbe ce7b 773f 946c 983f 1af7 e63e
000002a0: 9a8f ae3f c9fe 4dbf 374b 8c3e 200f 3240
000002b0: 5831 fd3f 154b d43e a53d a6bd ee32 313f
000002c0: b139 cb3e 25cd 11bf 704f 993f 2e21 043f
000002d0: 95a7 0a3f 1ccc 3c3f 7e77 a73e b17b 90be
000002e0: 6132 08bf 0bd6 ef3e 0b33 43bf 0a1e 1bc0
000002f0: 2abf 073e 7634 273f 08fb 5c3f 5fcd 91be
00000300: eb15 f1bc 25f2 953f e407 0cbc 66ff 933b
00000310: f9f0 613f e275 04c0 2f00 d7bf 3b6c 533f
00000320: 9297 c23d 8431 65bf f265 e2be 8dc7 6dbe
00000330: 1cea f63e f563 9d3f 30e7 46bf 701a 69be
00000340: 3568 053e b9a8 403f ba70 5abf be19 9a3d
00000350: 4b31 223f d2d0 bd3f 2015 523f 414e 0bbf
00000360: 6652 49bf 4bca 97bf d921 56bf ae42 1e40
00000370: b361 6ebf 13e3 c23f 76ef cbbe 7424 bcbf
00000380: 1973 a2bf 603e 853f f766 443f 6874 223e
00000390: 99ba 733e cf39 9d3e c725 be3f cba5 c93f
000003a0: 6871 92bf 009c 07be ab99 3cbf 4b32 343f
000003b0: 315a e83e e8fc 0b40 1d08 38bf da23 debd
000003c0: e789 2ebe a3f1 603f 662c 3a3f 30da 8f3e
000003d0: 5335 aa3f 2f7e b93f 7adb 9ebe 4f8c b9be
000003e0: f5c0 05c0 1920 9f3f 7695 883f dc5f dabc
000003f0: dcf2 2c40 83c0 323f 6f4c aebf 31d1 e4be
-0.54502213 0.4332106 0.3764227 0.4690712 0.8018144 0.174056 -0.846538 0.8679207
0.75667125 -0.18573584 1.1842995 0.09414933 1.5990641 -2.0341113 1.1254156 -0.13848478
0.08425705 1.1604424 -1.1781367 -0.73635185 1.3600515 1.0808382 -0.5168458 1.2911069
-0.3221575 -0.11804815 -0.116181165 -0.43003306 0.54769707 0.71266514 1.439548 -0.043408018
1.0430712 -0.06134569 0.92113054 -1.1147667 1.9539247 0.7556834 -0.5627927 0.4217291
-1.7121404 -0.50991935 -0.46846268 0.7350463 -0.48385605 -0.41584545 -0.69346833 1.1785353
0.7535643 -1.2739077 -0.71651864 0.33179337 -0.2016078 0.09412564 0.31975648 -0.34328383
0.35348743 0.8175636 1.0671839 0.30029666 0.93442357 1.5893296 1.0176626 -0.35963693
0.87491876 2.1888287 0.295436 0.3234987 -0.8112473 -0.6418509 -1.2803849 0.5739509
0.6456298 0.088178754 0.49505278 0.15126017 0.7224694 -0.28604352 -0.03693833 0.15565461
0.5655318 0.13006926 -0.3515581 0.6850013 0.31202823 0.46876752 0.70974356 -0.23045339
0.56678915 0.6691486 -2.1547418 0.43518198 0.46915382 -0.3430605 0.630242 -0.5740902
0.31278053 -0.19800165 2.1968982 0.05864093 -0.31732824 0.9485957 -1.0068915 1.071158
0.0311822 -0.4944866 2.256241 0.07855383 1.0441543 2.0121977 0.87046903 -0.67854255
0.08630116 1.5615976 0.09227117 1.6248322 1.5801439 0.7334589 0.111305825 -0.56216544
0.2660449 0.6858145 -0.373551 -0.30640996 -0.082668684 0.15509841 0.09069818 -0.0691593
1.3271072 0.09522712 1.053209 -1.0655578 -0.8448301 0.028969148 -1.1735657 -2.3210833
0.047592737 -0.65313345 -0.9200226 0.44621608 0.323125 0.68302715 1.1382993 -0.35369128
-0.54060346 0.41444817 0.7960948 -0.10939088 0.15969482 0.39141893 0.061430495 0.11546375
-0.08701065 1.1099741 -0.48633996 0.13782191 -1.1029421 0.43122587 -0.38543954 0.36146647
0.64519507 0.52650666 -0.049662974 -0.13756855 -0.27544945 0.96673286 1.1908135 0.451104
1.3637574 -0.80466896 0.27401134 2.7821732 1.9780684 0.41463533 -0.081172265 0.6921834
0.39692453 -0.5695365 1.1977367 0.5161313 0.5416196 0.73748946 0.32708353 -0.2821937
-0.5320187 0.4684299 -0.7624976 -2.4237084 0.13256517 0.65314424 0.86320543 -0.28476998
-0.029429397 1.1714522 -0.008546803 0.00451653 0.8825832 -2.069695 -1.6796931 0.8258702
0.09501566 -0.8952868 -0.44218403 -0.23220654 0.48225486 1.229613 -0.77696514 -0.22763991
0.13028033 0.7525745 -0.8532826 0.07524441 0.63356465 1.4829352 0.82063484 -0.5441628
-0.78641355 -1.185861 -0.836454 2.4728198 -0.9311783 1.5225548 -0.39831132 -1.4698625
-1.2691375 1.040966 0.7671961 0.15864718 0.2380165 0.30708167 1.4855279 1.5753721
-1.1440859 -0.13243103 -0.7367198 0.7038924 0.4538131 2.1873112 -0.7188738 -0.10846682
-0.17044793 0.8786871 0.72723997 0.2809615 1.3297523 1.4491633 -0.31026822 -0.3623986
-2.0899022 1.243167 1.0670612 -0.026657037 2.702323 0.69825 -1.3617076 -0.4469085

l1.bias f4 [8]
00000000: ab19 ba3f 227f 6d3f b08e 8e3f 70b2 963f
00000010: 3da6 b83f 21e6 8a3f 50d9 be3f 65af c23f
1.4539083 0.92772114 1.1137295 1.1773205 1.4425732 1.085148 1.4910069 1.5209776

l2.weight f4 [8, 8]
00000000: 6554 8540 640d e9bf 16c8 7240 b0aa 98bf
00000010: 1f19 a840 d1d9 ffbf 1e8f c1bf fa85 c33f
00000020: 96f3 1bbe b7c4 163b 6dbf c4be d14c 6abe
00000030: 5ae8 883e 91e9 26be d8b7 f63c 3860 1fbe
00000040: 6916 7e3b 1224 89be 3199 67be 40e6 7a3d
00000050: 02b8 11be ad8f 7d3e ceef 01be 83d9 adbe
00000060: da22 3340 9350 893f 42d2 79bf 3f50 47be
00000070: aec5 943f 351d 573f 167a 5340 7934 74bf
00000080: f9d2 ddbf 669c c740 dbc0 82be 6a08 6c40
00000090: b1d1 5dbf 6a66 a7bf ceec 6ebf 0b0c 6740
000000a0: 2339 92be 97c3 093e ef6b 75be 2863 9cbe
000000b0: 1a85 1cbe 6676 9dbd f77d 4ebe 8ccf ea3c
000000c0: 654c 69bf 57cb 2ec0 1978 49bf 09e3 9940
000000d0: 3cc0 4c3f 22b2 6740 ca94 8e40 7d3f 1c3f
000000e0: 346c 13bf 8d7a 863f cbc7 5640 d905 e7bf
000000f0: 267e 99bf b065 9640 d1aa afbe e8ab c03f
4.166552 -1.8207211 3.7934623 -1.192709 5.2530665 -1.9988347 -1.5121801 1.5275261
-0.1522964 0.0023005435 -0.38427296 -0.22880866 0.2673977 -0.16300036 0.03011696 -0.15564048
0.0038770682 -0.26785332 -0.22617032 0.06125474 -0.1423035 0.24761839 -0.12689134 -0.3395501
2.7990022 1.0727714 -0.9758645 -0.19464205 1.1622827 0.8402894 3.3043265 -0.95392567
-1.7330009 6.2378416 -0.25537762 3.6880136 -0.8664809 -1.3078129 -0.93330085 3.61011
-0.28559217 0.13453518 -0.23966955 -0.305444 -0.15285149 -0.07688598 -0.2016524 0.02866342
-0.91132194 -2.7311609 -0.7869888 4.8089643 0.79980826 3.6202474 4.4556627 0.61034375
-0.5758698 1.050615 3.3559444 -1.804866 -1.1991622 4.699913 -0.3431001 1.5052462

l2.bias f4 [8]
00000000: 87c9 ac3f ab63 9abe f6c0 9bbe 201f 943f
00000010: 5a00 903f cbe8 83be bd93 2f3f b5a9 a03e
1.3499001 -0.30154166 -0.30420655 1.1571999 1.1250107 -0.25763544 0.68584806 0.31379476

l3.weight f4 [58, 8]
00000000: b7d1 34bf b03d b23e b76a e03c a8a2 0ac0
00000010: 059b 1abf e545 bdbd ef7b a03e f186 c33c
00000020: 3c4c 6ec0 a9d7 e9bb daa8 573e 321a 07c0
00000030: 77e6 06bf f732 bf3d 582e af3e d951 cd3e
00000040: 2524 86bf 1900 5bbe ee0c 11bd 9402 76c0
00000050: 92a8 e83d 0f1e 3e3c c0a7 5abd 87db 613e
00000060: 1bb5 803e 7d63 a43e 4a5b a0be 3398 56c0
00000070: 30f1 f2be c5f8 b4be c1d3 73bf 0683 ed3e
00000080: ab23 953c 25fa b3be ce18 4dbe c281 a7c0
00000090: 9ae0 3a3e 9391 61bd a23d d6bf 2219 de3e
000000a0: 8135 d1be dda9 453e f3cc febd 5adb c0bf
000000b0: a179 82bf 5987 adbe e761 1bbf 1ea6 363f
000000c0: eaac 613e fd20 aabe 8041 153d 4bde 74bf
000000d0: 4855 a4bf 0e06 593e fe7c 7b3d e232 15bf
000000e0: 8df4 6a3d 04d6 733e c9b4 bebd 6a61 a5c0
000000f0: b55e 5e3e 1c70 593e 93c7 bdbe 3fca 76be
00000100: fd7a f2bf 2f90 0b3e 4710 bbbe 5760 2bbf
00000110: f4fe 2bbf 6178 2ebe a78c 8d3d 54cc 663e
00000120: ade6 a93e 26a8 8cbe fcb0 51bd d862 0cc0
00000130: e722 38c0 6501 993e a5ad 27bf 1dd6 2e3f
00000140: 5ead 42c0 49b2 0e3d ca24 f93d 2c17 21c0
00000150: 719b 013f 59e0 fd3c d0bc eb3c af5c 51be
00000160: 9719 833e 555c a03e 77d3 d0bc 30ed 6ac0
00000170: 38cd 31bf 6c0a 5f3e 50a7 493d 1433 05be
00000180: faff 163f 368c 883e 619d debd 5aca 59bf
00000190: a179 39bf 1180 063e 0bda 89c0 b7a8 db3d
000001a0: 80d6 533f 2711 453d 4c3e 373e 5a0d 1bc0
000001b0: b91a d2bf 56a7 0abe bcbb 03c0 0ab7 633e
000001c0: a2b3 3f3e b45a 21be c002 2cbe 6429 f9bf
000001d0: e205 63bf 572b 383e 3856 0fc0 5733 663f
000001e0: 71cb a03e 34cd c03d 0521 583e 09bf 28c0
000001f0: ffc9 d33e ab06 793e 8273 56bf 5167 7bbf
00000200: a765 c33e b15c 8bbe 03cf ff3d b05c a7c0
00000210: 02ce 1a3f c2ff 793e 0676 e5bf c609 f8be
00000220: 6f38 c0bd fbb3 3dbe 39cd 203d 8001 afbf
00000230: dd36 47be cc70 103e 1fda 14be b49c ddbe
00000240: e643 47bf b2e5 9b3e 7724 4a3d 59ff 9dc0
00000250: 2497 4bbd 43c8 5e3e 7234 a2bf dbaf 603f
00000260: 93d2 173f 8f3b 81bd 8d55 c7be 0f39 5fbf
00000270: 62ad 6ec0 36c7 a73d 5ef8 fabf 31f0 da3e
00000280: 428a 5abe f858 183e 2b21 613e 90b4 50bf
00000290: 7e15 9fc0 95fe 17be 731e c13e 23b9 e5bd
000002a0: e26f 24bf 99af ac3e f6d7 a13d ae0c 20bf
000002b0: c29a 48bf 61d8 a5be cde0 c13e 99e4 21bf
000002c0: 5964 4cbf c398 38be f05c 9c3e 3720 97c0
000002d0: d6de 283f 1256 523d bcea 87bf c227 d53d
000002e0: 7f4e 98bf f041 df3d 6226 883e 9e8f 6dbf
000002f0: 95ba 10c0 938d 443e 4637 003f 1ad5 a83e
00000300: 6971 19c0 d450 44be f398 efbd 5e5a 46c0
00000310: f212 993e ff67 ab3e 0762 35bf b07e 173f
00000320: f705 7ebf 8d27 033b 8a5f 113e fe10 bbbf
00000330: b248 c53e aa6a 6e3e c4e8 f2be 91e7 71be
00000340: 3b62 e03e ba02 a0be 5012 79be a42d 60c0
00000350: afa1 8c3e 7e37 2abe 4655 91c0 6ccc 283e
00000360: 0a94 0e3f 744b fbba 96d1 bcbe 851b c5bf
00000370: 937f 47bf e3f6 2d3e 553f 7abf 384d 08be
00000380: 9edf 763f 2857 27be c16f 97be b898 a1bf
00000390: 4497 7cc0 7d16 7e3e 80a6 98c0 392b 5b3d
000003a0: ba83 89bf 4b1a 163e de4e 383e 5e0b eb3d
000003b0: 7333 f73e 3176 dbbc 24da 61be c5b6 95c0
000003c0: f202 553f 215b 063e 8754 b2be 69f9 1b3d
000003d0: 5733 30c0 1578 96bc 002c 8bbf 574e b1bf
000003e0: f430 f73e e797 ac3e 968f 153e bfd0 a2bf
000003f0: 311b 853e 9a9d b33e 4609 11c0 4ce0 40bf
-0.706325 0.3481269 0.027394636 -2.1661777 -0.6039279 -0.09241847 0.31344554 0.023868056
-3.723403 -0.0071363044 0.21060506 -2.1109738 -0.5269541 0.09335893 0.34215045 0.40101507
-1.047978 -0.21386756 -0.03541272 -3.8439074 0.11360277 0.011603846 -0.053382635 0.220564
0.25138173 0.32107154 -0.31319648 -3.3530395 -0.47449636 -0.35346046 -0.95244986 0.46389025
0.018205484 -0.35151783 -0.20028993 -5.2345896 0.18249741 -0.05507047 -1.6737559 0.4337855
-0.40861133 0.19303079 -0.12441435 -1.5066941 -1.0193368 -0.33892325 -0.6069626 0.71347225
0.22038618 -0.33228293 0.03643942 -0.9565169 -1.2838526 0.21193716 0.0613985 -0.58280766
0.057362128 0.23812109 -0.09311826 -5.1681414 0.21715815 0.21234173 -0.37066326 -0.24100588
-1.8943783 0.1362922 -0.36535856 -0.6694388 -0.671859 -0.17038108 0.06911593 0.22538882
0.33183804 -0.27472037 -0.051194176 -2.193533 -2.8771303 0.29883876 -0.65499336 0.6829546
-3.0418315 0.034837995 0.1216522 -2.5170393 0.5062781 0.030990766 0.028776556 -0.20445512
0.2560546 0.31320444 -0.02549146 -3.6707268 -0.69453764 0.2178132 0.049231827 -0.13007766
0.5898434 0.26669472 -0.108698614 -0.8507439 -0.72451216 0.13134791 -4.3078666 0.10725539
0.82749176 0.04811206 0.17894858 -2.42269 -1.6414405 -0.13540396 -2.0583334 0.22237793
0.18720868 -0.15757257 -0.16797924 -1.9465756 -0.8868085 0.17985283 -2.2396374 0.8992209
0.31405213 0.094141394 0.21106346 -2.6366599 0.41365048 0.2431895 -0.8377 -0.98204523
0.38163492 -0.27219155 0.12490656 -5.2300644 0.6047059 0.2441397 -1.7926643 -0.48444957
-0.09385764 -0.18525688 0.039258216 -1.3672333 -0.19454522 0.14105529 -0.14536332 -0.43283617
-0.7783798 0.3044868 0.04935118 -4.9374204 -0.049704686 0.21756081 -1.2672255 0.87768334
0.59305686 -0.06310188 -0.38932458 -0.8719644 -3.7293324 0.08192293 -1.9607046 0.42761377
-0.21341804 0.14877689 0.21985309 -0.81525517 -4.9713736 -0.14843209 0.37718543 -0.11216953
-0.6423322 0.3372772 0.079025194 -0.6251935 -0.7836114 -0.32391647 0.37866822 -0.6323944
-0.7984062 -0.18027024 0.30539656 -4.7226825 0.6596502 0.051351614 -1.061851 0.10407974
-1.1898955 0.109012485 0.26591784 -0.9279727 -2.261388 0.19194631 0.5008434 0.32975084
-2.397547 -0.19171458 -0.116990946 -3.0992656 0.29897267 0.3347778 -0.708527 0.59177685
-0.9922785 0.0020012588 0.14196602 -1.4614561 0.38532025 0.23282877 -0.4744321 -0.23623492
0.43824944 -0.3125208 -0.24323392 -3.5027857 0.27467105 -0.16622731 -4.5416594 0.16484231
0.5569464 -0.0019172267 -0.3687865 -1.5399023 -0.7792904 0.16988711 -0.97752887 -0.13310707
0.9643496 -0.16341841 -0.2957745 -1.2624731 -3.9467325 0.24813266 -4.7703247 0.053508017
-1.0743325 0.14658467 0.17998835 0.114767775 0.4828144 -0.026789756 -0.2205587 -4.6785607
0.8320762 0.131207 -0.34830114 0.038079653 -2.7531335 -0.018367806 -1.0872803 -1.3852032
0.48279536 0.33709642 0.14605555 -1.2719954 0.25997308 0.35081178 -2.266191 -0.7534225

l3.bias f4 [58]
00000000: a638 49bf 4add 07bf 3090 933c c92b b03e
00000010: 3cf9 72bf 85f1 3abe 1197 00bf 507c 04bf
00000020: 9c21 49bc 3503 053d 8f39 0e3e 3351 01bf
00000030: 03f2 3e3e 75b9 1d3e 3c59 a6be 1e10 58be
00000040: 4f89 c33e a245 2e3f 0bba efbe d98e 853e
00000050: 1ef2 77bf d6ff 26be b2c9 293e 8c7f c5bd
00000060: 606d 32bf 6e0b 06bf d93c 863d 6d87 053e
00000070: 4f78 88be 6ba1 653f 8a28 f03e ac27 4dbc
00000080: 097e 2bbe 888a 31be 065f ce3d ab50 42bf
00000090: 07de 9cbe ae3a a0be e1a2 f03b 47a7 1fbd
000000a0: a22f ae3d a461 673e 9226 433f 3b6a 273f
000000b0: 758e 473e 2779 903d 59c2 dc3d dfee b73e
000000c0: cb94 8d3e 9413 bcbd 4ff3 3b3e be31 41be
000000d0: d743 da3e a626 57be ac18 4bbf f744 1d3f
000000e0: 6667 9dbd cf02 f9bc
-0.78602064 -0.53072035 0.01801309 0.34408405 -0.9491155 -0.18256195 -0.5023051 -0.51752186
-0.0122760795 0.03247376 0.13889144 -0.50514525 0.18647008 0.15402777 -0.32489955 -0.21099898
0.38190696 0.68075 -0.46821627 0.26085547 -0.96853817 -0.16308531 0.16580847 -0.09643468
-0.69698143 -0.5236119 0.065545745 0.13039942 -0.26654288 0.8969943 0.4690593 -0.012521666
-0.16747297 -0.17338002 0.10076718 -0.7590434 -0.30638143 -0.3129477 0.0073436354 -0.038977887
0.08505179 0.2259584 0.7623073 0.6539647 0.19487937 0.07054358 0.107792564 0.35924432
0.27652583 -0.09183422 0.18354534 -0.18866631 0.42629883 -0.21010837 -0.7933452 0.61433357
-0.07685737 -0.030396847
