chatbot/data.pth (torch, 16618 bytes, 6 tensors)

network.0.weight f4 [8, 241]
0	0xbd4c421b	-0.04986773
1	0x3de28369	0.11060221
2	0xbdd1720f	-0.10226833
3	0x3e4ed69c	0.20199054
4	0x3d7a8877	0.0611653
5	0x3def22af	0.11676537
6	0xbe06d3b0	-0.1316669
7	0x3ead87e8	0.3389275
8	0xbd530d84	-0.05152656
9	0xbeba2095	-0.36352983
10	0x3ed8eb58	0.42367053
11	0x3e7c156c	0.24617547
12	0x39e771bc	0.00044144492
13	0xbd99a924	-0.07502964
14	0xbdfc6785	-0.12324432
15	0xbeb49d41	-0.35276225
16	0xbef11361	-0.47085097
17	0xbbf0b783	-0.007346095
18	0x3e601937	0.21884619
19	0xbe816813	-0.25274715
20	0x3e01ae7f	0.12664221
21	0x3d07d617	0.033163156
22	0xbdf63665	-0.12022094
23	0xbd13b90b	-0.036065143
24	0x3eb64e8e	0.35606807
25	0xbbbff9e1	-0.0058586453
26	0x3c12cca6	0.008959925
27	0x3e5ccfc8	0.21563637
28	0x3dabd189	0.08389575
29	0xbd9ba463	-0.07599714
30	0x3e90c97c	0.2827872
31	0x3cc2e9b5	0.02379308
32	0x3f04036b	0.51567715
33	0x3f0281db	0.50979394
34	0xbe43eb87	-0.19132815
35	0x3df2d3ab	0.11856779
36	0xbd964c32	-0.07338752
37	0xbec3198f	-0.38105437
38	0xbe1bf8cf	-0.15231632
39	0x3ccb5ff7	0.024826033
40	0xbdfeab58	-0.12435025
41	0xbf082346	-0.53178823
42	0x3eb6f5a2	0.35734278
43	0xbd75575a	-0.059897758
44	0x3e1fb646	0.15596876
45	0x3ea7bf77	0.32763264
46	0x3de41516	0.11136834
47	0x3ef2ebe2	0.4744559
48	0xbddfcaee	-0.10927378
49	0xbe8af8c5	-0.2714292
50	0x3ddb14d9	0.10697336
51	0xbd9066a0	-0.07050824
52	0xbd2860aa	-0.04110781
53	0xbc55a18e	-0.013039006
54	0xbdf9f5d1	-0.12205089
55	0x3ec7c4f9	0.39017466
56	0x3e9b37a3	0.30315885
57	0x3d9eb2f6	0.07748978
58	0x3ec3ecc0	0.38266563
59	0xbe40b3ac	-0.1881854
60	0x3b0019d3	0.0019546642
61	0x3e82ab78	0.25521445
62	0xbdaeb0a7	-0.085297875
63	0xbdfd2553	-0.12360635
64	0xbd9f41f6	-0.07776253
65	0x3eb8436c	0.3598894
66	0xbe97cb26	-0.29647177
67	0xbdbc5e9e	-0.09197734
68	0x3e30b45d	0.17256303
69	0x3e873920	0.2641077
70	0xbdeaebed	-0.114707805
71	0x3ea0397a	0.3129385
72	0xbe452440	-0.1925211
73	0xbe4a4af4	-0.19755155
74	0xbe835867	-0.25653383
75	0x3eb60d73	0.35557136
76	0x3e15936e	0.14607021
77	0x3e06e9fc	0.13175195
78	0xbec0273c	-0.37529933
79	0x3e73db26	0.23814067
80	0x3c9e8391	0.019349845
81	0xbdf801ef	-0.12109744
82	0xbe06ae55	-0.1315244
83	0xbe5191db	-0.20465796
84	0x3e9d82e5	0.30763927
85	0x3d842329	0.06452019
86	0x3e6a574c	0.22884864
87	0xbe7764e3	-0.24159579
88	0xbcf80b22	-0.030278746
89	0xbeb7834a	-0.35842353
90	0x3f5942bb	0.8486745
91	0x3f30102c	0.68774676
92	0x3ed385a4	0.41312897
93	0xbe237429	-0.1596228
94	0xbe5738dc	-0.21017784
95	0x3e257f81	0.1616192
96	0x3c4a5340	0.01234895
97	0x3e232046	0.1593028
98	0xbed445ad	-0.41459408
99	0x3f21aaa4	0.63151
100	0x3e0da9e9	0.13834347
101	0x3e59d56e	0.21272823
102	0x3cee3ce2	0.029081766
103	0x3ecac848	0.39605927
104	0x3d48f69c	0.04906331
105	0x3e304478	0.17213619
106	0xbeb32025	-0.34985462
107	0xbe4ef7bd	-0.20211692
108	0xbe8ae483	-0.27127466
109	0xbee6058b	-0.44926104
110	0x3d908b1d	0.07057784
111	0xbd981d86	-0.07427506
112	0xbe1b79f6	-0.15183243
113	0xbdcef091	-0.10104478
114	0xbe8160af	-0.25269076
115	0x3eddbfdf	0.4331045
116	0x3e94c27f	0.2905464
117	0xbe19fc6e	-0.150377
118	0xbdd5969c	-0.10429117
119	0xbe1f5239	-0.15558709
120	0xbe1b0c35	-0.15141375
121	0x3dd2f56b	0.10300716
122	0x3f895264	1.0728269
123	0xbe9dc765	-0.30816188
124	0x3e9f5518	0.3111961
125	0xbe04daf9	-0.12974156
126	0xbd8362d4	-0.06415334
127	0xbd4ae4df	-0.049534675
128	0x3e6f527c	0.23371309
129	0x3e8d2594	0.27567732
130	0xbe80bed8	-0.25145602
131	0x3ec1959d	0.37809458
132	0xbe292577	-0.16518198
133	0xbd2c8b3f	-0.042124983
134	0x3ea98e72	0.3311649
135	0xbcb7ef90	-0.0224531
136	0xbea3ad8a	-0.31968337
137	0x3d2209d1	0.039560143
138	0x3dc6cf6c	0.09707531
139	0x3dd86fee	0.10568224
140	0x3e1ee0e9	0.15515484
141	0x3eac3586	0.33634585
142	0x3eb07fb7	0.3447244
143	0x3d547ebf	0.051878687
144	0x3e30ce2a	0.17266145
145	0x3e699210	0.22809625
146	0x3e843783	0.25823602
147	0xbe9e0336	-0.30861825
148	0x3d0da8af	0.034584697
149	0xbbdb06d6	-0.0066841645
150	0x3f1016a3	0.5628454
151	0xbd00fc56	-0.031490646
152	0xbd92f67a	-0.07175918
153	0xbd0a83ab	-0.033816975
154	0x3e5e68eb	0.2171971
155	0x3e84b00b	0.2591556
156	0x3db0dbfe	0.0863571
157	0xbde6d28a	-0.11270626
158	0x3e73e05e	0.23816058
159	0x3e14cf8f	0.14532302
160	0xbe320637	-0.17385183
161	0x3efc0e2f	0.4922957
162	0xbc7f60e5	-0.015587066
163	0xb83f5391	-4.5615776e-05
164	0xbd89cad4	-0.067281395
165	0x3d57fa74	0.052729085
166	0x3d367da3	0.04455341
167	0xbe954ee7	-0.2916176
168	0xbe04807a	-0.12939635
169	0xbf3024aa	-0.68805945
170	0xbea682c5	-0.32521644
171	0xbe4bb3c7	-0.19892798
172	0xbeb7c55e	-0.35892767
173	0xbda73d13	-0.08165946
174	0x3f109c30	0.56488323
175	0xbc67d616	-0.014150163
176	0x3f8d2385	1.1026465
177	0xbe10c945	-0.14139278
178	0xbeaec7ba	-0.34136754
179	0xbede4ce0	-0.43418026
180	0xbe8225de	-0.25419515
181	0xbea6a0ff	-0.32544705
182	0xbd4f05e2	-0.05054272
183	0xbecc4a7b	-0.39900574
184	0xbf0457e4	-0.5169661
185	0xbe80a87f	-0.25128552
186	0xbe00d071	-0.12579514
187	0xbda6ce45	-0.081448115
188	0xbe4692c3	-0.19391923
189	0x3e8089c5	0.2510511
190	0xbedeb047	-0.43493864
191	0xbe332324	-0.17493874
192	0xbe185c55	-0.14878972
193	0x3eff7f43	0.4990178
194	0x3dfe4c88	0.12416941
195	0x3e0ead55	0.13933308
196	0xbd676d11	-0.0565005
197	0xbe835f72	-0.25658756
198	0xbbb0b2c5	-0.0053924047
199	0xbeed89a3	-0.4639407
200	0xbdf7d5f6	-0.12101357
201	0x3eec6af9	0.46175364
202	0x3e803cef	0.2504649
203	0x3eb2ad15	0.34897676
204	0x3e163ef7	0.14672457
205	0xbd0bb521	-0.034108285
206	0x3d9ba62c	0.07600054
207	0xbedefbc1	-0.43551448
208	0xbd5f45b2	-0.054509826
209	0xbd3aeffc	-0.045639023
210	0xbdadc803	-0.08485415
211	0x3ec73fdf	0.38915917
212	0xbd2fe907	-0.04294684
213	0x3e8035a2	0.2504092
214	0x3ca44784	0.020053633
215	0xbda8f807	-0.082504325
216	0x3dc3f77d	0.09568689
217	0x3c013ec9	0.007888504
218	0xbe3a7bc5	-0.18211277
219	0x3f0ff934	0.5623963
220	0xbdd36f5a	-0.10323973
221	0xbeb71c12	-0.35763603
222	0x3e849a9e	0.25899214
223	0xbea37027	-0.31921503
224	0x3ead6377	0.33864948
225	0x3e9e7c81	0.30954364
226	0xbd981177	-0.07425206
227	0xbe0d7889	-0.13815512
228	0xbce52172	-0.02797005
229	0x3db5e674	0.08881846
230	0x3f05b6dc	0.52232146
231	0x3e9e5e19	0.30931166
232	0x3df1d58c	0.11808309
233	0xbe7d5a63	-0.24741511
234	0xbe140d29	-0.14458145
235	0x3ede17b1	0.4337745
236	0x3e847d91	0.2587705
237	0x3eb77c6b	0.3583711
238	0xbe22893e	-0.15872666
239	0x3ed26f3c	0.4110049
240	0xbe8501b9	-0.25977877
241	0x3c8bde9d	0.017073924
242	0x3e94f53c	0.2909335
243	0x3e3f1a9c	0.18662494
244	0xbd46ff4e	-0.04858332
245	0x3dce7f7c	0.100829095
246	0x3f154f07	0.5832371
247	0x3f177a3d	0.59170896
248	0x3de513bb	0.11185404
249	0xbc5bafcf	-0.013408615
250	0xbede57a5	-0.43426242
251	0x3d80693c	0.06270072
252	0x3d83af40	0.06429911
253	0xbe43d7ea	-0.19125333
254	0xbd90c93a	-0.07069631
255	0xbde7caaf	-0.11317956

network.0.bias f4 [8]
0	0x3e14accc	0.14519042
1	0x3df4d303	0.1195431
2	0x3e8196fe	0.2531051
3	0x3e59e47a	0.21278563
4	0x3e2cc763	0.16872935
5	0x3e78c66a	0.24294439
6	0x3e7a2de1	0.24431564
7	0x3e8049b0	0.2505622

network.3.weight f4 [8, 8]
0	0xbe0ca16e	-0.13733456
1	0xbe8e7363	-0.27822408
2	0xbea15c6e	-0.3151583
3	0x3dedc973	0.11610689
4	0xbe93e04b	-0.2888206
5	0xbd74eee2	-0.05979813
6	0xbe67b1e2	-0.2262645
7	0x3d853df4	0.06505957
8	0xbd8da53c	-0.069162816
9	0xbdceeae1	-0.10103393
10	0xbf0ffa63	-0.56241435
11	0xbf340b42	-0.7032968
12	0xbe84ea1b	-0.25959858
13	0xbea25881	-0.31708148
14	0x3eb44741	0.35210612
15	0x3f68e0df	0.90968126
16	0xbec33139	-0.3812349
17	0xbf20c0b7	-0.6279406
18	0x3fc1792f	1.5115107
19	0x3f8f8b89	1.1214458
20	0xbe9dbdeb	-0.30808958
21	0xbe4f3726	-0.20235881
22	0x3f940891	1.1565114
23	0xbf141d18	-0.57856894
24	0xbf392b0b	-0.72331303
25	0xbe215752	-0.15755966
26	0x3cc11665	0.023570249
27	0xbecb1883	-0.39667138
28	0xbecde7b5	-0.4021584
29	0x3fe4510c	1.7837234
30	0x3fe74443	1.8067707
31	0x3f84f150	1.0386143
32	0x3fe59897	1.7937192
33	0x3d3294af	0.043598827
34	0xbf17e848	-0.5933881
35	0xbf38fa17	-0.72256607
36	0x3fc06c98	1.503314
37	0x3fa5f0e1	1.2964135
38	0xbeac4a20	-0.33650303
39	0xbf9fe351	-1.2491246
40	0x3c890a30	0.01672849
41	0xbc0e6696	-0.008691451
42	0x3fde7cea	1.7381871
43	0x3faf714a	1.3706448
44	0x3eba0187	0.3632929
45	0xbe470144	-0.19434077
46	0x3f19718c	0.59938884
47	0x3af51d65	0.0018700777
48	0xbf3419d0	-0.70351887
49	0x4003c85d	2.0591042
50	0x3e3ce28c	0.18445796
51	0x3f9b5515	1.213534
52	0xbf15f57c	-0.58577704
53	0x3e7bcd4f	0.24590038
54	0xbd8d4180	-0.06897259
55	0x3d79630e	0.06088548
56	0x3f54abc4	0.83074594
57	0xbf1f4d0a	-0.6222693
58	0x3eb91a57	0.36152908
59	0x3f1e991d	0.6195238
60	0x3fd036e1	1.6266748
61	0x3e89aad2	0.26888138
62	0x3db0661e	0.08613227
63	0x3f9989b5	1.199515

network.3.bias f4 [8]
0	0xbe65d49a	-0.22444382
1	0x3f86d340	1.0533218
2	0x3f5ad1ca	0.8547636
3	0x3bb55187	0.0055334005
4	0x3f46ae45	0.77609664
5	0xbeac28d0	-0.33624887
6	0xbe64068b	-0.22268121
7	0xbf39e783	-0.72618884

network.6.weight f4 [35, 8]
0	0xbdb04321	-0.08606554
1	0x3d9152d7	0.070958786
2	0x3e7b11b9	0.2451848
3	0x3ea0ae9e	0.31383222
4	0xbf80742b	-1.0035452
5	0xbe4fd1a9	-0.20294823
6	0xbf80e881	-1.0070955
7	0xbe13eded	-0.1444623
8	0xbe883471	-0.2660251
9	0x3dd828a9	0.1055463
10	0xbe8d3254	-0.2757746
11	0x3f062b29	0.5240961
12	0xbea4f261	-0.3221617
13	0xbf32cebb	-0.69846696
14	0xbf7aa982	-0.979149
15	0x3eac21f4	0.33619654
16	0xbeb3e747	-0.35137388
17	0x3deb6698	0.114941776
18	0xbff4e956	-1.9133708
19	0xbcb24383	-0.021760708
20	0x3ea65440	0.32486153
21	0xbfb8324a	-1.4390347
22	0xbfc65249	-1.5493861
23	0x3e9c4944	0.30524647
24	0xbe858533	-0.26078185
25	0xbf6ec781	-0.9327317
26	0x3e3b4911	0.18289591
27	0x3e9c1024	0.30481064
28	0xbe6aa210	-0.22913384
29	0x3dce732a	0.100805596
30	0xbea86829	-0.32891968
31	0x3edbb5ec	0.42912233
32	0xbd8617bf	-0.06547498
33	0xbffc5eb8	-1.9716406
34	0xbf9856ae	-1.1901453
35	0xbf8737c1	-1.056389
36	0x3edb3b3b	0.42818627
37	0xbe72f69c	-0.23726887
38	0xbf9e1e21	-1.2352945
39	0x3e9e094c	0.30866468
40	0x3cb5e2d1	0.022202881
41	0xbed09845	-0.40741172
42	0xbf726088	-0.94678545
43	0xbfd21981	-1.6414033
44	0x3ed66584	0.41874325
45	0xbf736d01	-0.950882
46	0xbfcb9cf8	-1.5907278
47	0x3da8cf38	0.08242649
48	0xbe6a5dd7	-0.2288736
49	0xc0011195	-2.0166981
50	0x3e58af1b	0.21160547
51	0x3ebce933	0.36896667
52	0xbdaaae85	-0.08334068
53	0xbe88dabc	-0.2672938
54	0x3e99cedf	0.30040643
55	0xbf390d43	-0.7228586
56	0xbeb3eacf	-0.35140082
57	0xbe81fa7f	-0.25386426
58	0x3ec3dfff	0.38256833
59	0x3e9e82e6	0.30959243
60	0xbfc65b99	-1.5496703
61	0x3e4b8d35	0.19878085
62	0xbf8d4ba6	-1.1038711
63	0x3e435181	0.1907406
64	0x3c6714c3	0.014104071
65	0xbfc53733	-1.540747
66	0x3ec0804b	0.3759788
67	0xbfa8f0cf	-1.3198489
68	0xbfae1a7a	-1.360183
69	0x3e829832	0.2550674
70	0x3eb18cb4	0.3467766
71	0xbf5e1d0c	-0.8676307
72	0xbea09fc7	-0.313719
73	0x3dc20aa4	0.09474686
74	0xbf307678	-0.6893077
75	0xbfba4d11	-1.4554769
76	0x3dfab82b	0.122421585
77	0xc0305f7a	-2.7558274
78	0x3ea1c1f2	0.3159328
79	0xbf85e5be	-1.0460737
80	0x3d5d7f79	0.054076646
81	0xbeec1d8a	-0.46116287
82	0xbfa19b42	-1.2625506
83	0xbf6b9921	-0.9203053
84	0x3ee2d6b0	0.4430442
85	0xc0441780	-3.0639343
86	0x3df0c36d	0.117560245
87	0xbf04a31c	-0.51811385
88	0xbecfb947	-0.40571043
89	0xbfe6ccf1	-1.8031293
90	0xc000ad87	-2.0105913
91	0x3d0379c0	0.03209853
92	0x3f06e7a7	0.52697223
93	0xc005a63d	-2.0882714
94	0xbda7ad4b	-0.0818735
95	0x3d07fa67	0.033197787
96	0xbe5714ff	-0.21004103
97	0xbfbf8144	-1.4961324
98	0x3ed80afe	0.42195886
99	0xbfe3a3cc	-1.7784362
100	0xbecb2061	-0.3967314
101	0x3e95d2a0	0.29262257
102	0xbe77e401	-0.2420807
103	0x3e8fcc65	0.28085628
104	0xbd1f0845	-0.038826246
105	0xbfb43f7a	-1.4081872
106	0xbd8ce4bc	-0.06879565
107	0xbfc502c3	-1.5391468
108	0xbd93f8f4	-0.072252184
109	0x3cfb41c8	0.030671015
110	0x3e787b0c	0.24265689
111	0x3e87876c	0.26470506
112	0xbe8b72e8	-0.27236104
113	0xbf2ef650	-0.68344593
114	0x3e7b8fac	0.24566525
115	0x3d4956c5	0.049155015
116	0xbe7dc68c	-0.24782771
117	0xbe3e2d75	-0.18572028
118	0xbe5934ef	-0.21211599
119	0x3c248a66	0.010042762
120	0xbdfd0b8b	-0.12355717
121	0xbf5f1fce	-0.87157905
122	0xbf8a08eb	-1.0783972
123	0xbf91f0c1	-1.1401597
124	0x3f027a37	0.50967735
125	0xc01dd7d2	-2.4662976
126	0x3d7b8c80	0.061413288
127	0xbecc85fd	-0.39945975
128	0x3e46ccee	0.19414112
129	0x3dab20e6	0.08355884
130	0xbea2750c	-0.31729925
131	0xbea17e8f	-0.3154187
132	0xbfa1394c	-1.2595611
133	0xbf0f6b60	-0.56023216
134	0x3ed64248	0.41847444
135	0xbf2bf705	-0.67173797
136	0xbcd61a92	-0.026135717
137	0xbfcc7010	-1.5971699
138	0xc0015ce8	-2.0212955
139	0xbe4951d3	-0.1966012
140	0x3f140384	0.57817864
141	0xbffa4676	-1.9552753
142	0xbf8da203	-1.1065067
143	0x3e8b49dd	0.2720479
144	0x3ba6a263	0.005085276
145	0xbf08e9d2	-0.5348178
146	0x3e8cb53e	0.27482027
147	0x3cf8741d	0.030328805
148	0xbfba254c	-1.4542632
149	0xbd06bda5	-0.032895703
150	0x3e9d61eb	0.30738768
151	0xbf3c3d99	-0.7353149
152	0xbed5de78	-0.41771293
153	0xbe385e76	-0.18004784
154	0x3ee2c24d	0.44288865
155	0xbd1ab6fd	-0.037772167
156	0xbfc9afff	-1.5756835
157	0xbd2502d8	-0.040285915
158	0xbdb8477a	-0.08998008
159	0xbfab42e3	-1.3379787
160	0x3d7f0dd8	0.06226906
161	0xbf69430e	-0.9111794
162	0x3ebbc1ab	0.36671194
163	0x3e6cbb36	0.2311829
164	0xbf6a7600	-0.91586304
165	0x3e22fec4	0.15917498
166	0xbe9ef01a	-0.31042558
167	0x3eb04c9c	0.34433448
168	0xbe68746e	-0.22700664
169	0xbe9e46e7	-0.3091347
170	0x3dddcd67	0.10830193
171	0x3f0cfa2b	0.55069226
172	0xbf8df0b1	-1.1089078
173	0xbe05197f	-0.12998007
174	0x3e1c5a90	0.15268922
175	0xbde819bf	-0.11333036
176	0x3d116add	0.035502303
177	0xbfa739cd	-1.3064514
178	0x3db08397	0.08618849
179	0x3d0a1db0	0.03371972
180	0x3e64f5da	0.2235941
181	0xbc3a6352	-0.011376219
182	0xbfba7777	-1.4567708
183	0x3ea3fdd3	0.3202959
184	0x3dec35fb	0.115337335
185	0xbf06a9b4	-0.52602696
186	0xbfe15008	-1.7602549
187	0xbf5e757b	-0.8689801
188	0x3ec44779	0.3833578
189	0xbf7d760a	-0.9900824
190	0xbfcc5312	-1.5962851
191	0x3efbf288	0.49208474
192	0xbe029c50	-0.12754941
193	0xbda11be2	-0.07866646
194	0xbf98e7fb	-1.1945795
195	0x3ef878b5	0.48529592
196	0x3b25baa8	0.0025288258
197	0xbfc9779e	-1.5739629
198	0xbd09eb6d	-0.033671785
199	0xbd067e63	-0.032835376
200	0xbefa5680	-0.4889412
201	0x3c34049f	0.01098743
202	0xbece870d	-0.4033741
203	0xbf493ac1	-0.78605276
204	0xbf82f512	-1.023104
205	0xc0143691	-2.3158305
206	0x3eee5634	0.46550143
207	0xbf5853d8	-0.84502935
208	0xbe6e4548	-0.23268616
209	0xbf95b4cf	-1.1695803
210	0x3efc1634	0.4923569
211	0xbf9ca7a2	-1.2238657
212	0xbbaade21	-0.005214468
213	0x3d5ccb35	0.05390473
214	0xbfa7ca2e	-1.3108575
215	0x3e343dcc	0.17601699
216	0x3e51fd1a	0.20506707
217	0x3eac2622	0.33622843
218	0x3e5eda5b	0.21762984
219	0xbfc17071	-1.5112439
220	0x3e090091	0.13379122
221	0xc044e5df	-3.0765302
222	0xbfcad9e8	-1.584775
223	0xbfe5675e	-1.792217
224	0xbe7dbd9e	-0.24779364
225	0xbfb07f82	-1.3788912
226	0x3f0f62aa	0.56009924
227	0xbe97c1b2	-0.29639965
228	0xbfe68de1	-1.8012048
229	0x3ebcf5d0	0.3690629
230	0x3e4aea41	0.19815923
231	0xbeb499b4	-0.35273516
232	0x3e4c763c	0.19966978
233	0x3ed7f398	0.42178035
234	0xbeb986d7	-0.36235687
235	0xbfb2dd27	-1.397374
236	0x3eaaafe5	0.33337322
237	0xc045b521	-3.0891802
238	0xbfa4f552	-1.2887366
239	0xbfc0ea56	-1.5071514
240	0xbe726d38	-0.23674476
241	0xbf8e8a31	-1.1135923
242	0x3f2d2f17	0.6764998
243	0xbf8973d0	-1.0738468
244	0xbfb953c8	-1.4478693
245	0x3d9d685b	0.0768592
246	0xbe47ea5c	-0.19522995
247	0xbf45f25c	-0.77322936
248	0xbe868c3b	-0.26278862
249	0x3f202ab8	0.62565184
250	0xbd8b4af7	-0.06801408
251	0x3ebd0eb4	0.3692528
252	0xbf4a7247	-0.79080623
253	0xc02029ad	-2.5025437
254	0xbfd8b0e4	-1.6928983
255	0xbea3bb5a	-0.31978875

network.6.bias f4 [35]
0	0x3eab7797	0.33489677
1	0xbf59ed7d	-0.85128003
2	0x3bf9f082	0.0076275477
3	0xbf63eea3	-0.89036006
4	0x3e8b43b3	0.27200088
5	0x3f26388a	0.6493002
6	0xbec2f5ba	-0.380781
7	0xbf376608	-0.7164006
8	0xbd4fe761	-0.05075777
9	0x3ea906bc	0.3301295
10	0x3e816bb4	0.25277483
11	0xbe6f7fc6	-0.23388585
12	0xbe7020ee	-0.23450062
13	0x3e6cd50d	0.23128147
14	0x3e95fd50	0.29294825
15	0x3e9563aa	0.291776
16	0x3ea272db	0.31728253
17	0xbed7ca69	-0.42146614
18	0x3e05de0d	0.13072987
19	0x3f08fa84	0.53507257
20	0xbf29e215	-0.663606
21	0xbf4a0b7b	-0.7892377
22	0xbec24732	-0.37944943
23	0xbd930c0c	-0.07180032
24	0x3e236128	0.15955031
25	0x3f341899	0.70350033
26	0x3e164ec0	0.14678478
27	0x3f756fa8	0.958735
28	0xbf8a78a1	-1.0818063
29	0x3f0f5881	0.5599442
30	0x3e587965	0.21140058
31	0x3f099742	0.53746426
32	0x3f346f8f	0.70482725
33	0xbd394db4	-0.04524012
34	0xbec2634c	-0.37966383
